detector3.pth (torch, 594140 bytes, 5 tensors)

model.0.weight f4 [256, 512]
-0.030571532 0.02558423 0.0029280726 -0.0037477058 0.049071845 -0.01674421 -0.04107964 0.0069173938
0.02276904 -0.00068051706 -0.0064752423 -0.040435836 0.0039643045 0.0073233927 0.059957817 0.0014299075
-0.05020976 -0.057670888 -0.0012275183 0.04006213 -0.030799638 -0.03845901 0.058608472 0.0063835843
-0.021476312 -0.04164032 0.028587786 0.045413516 -0.005346707 0.04507862 -0.011806658 -0.0009815673
0.037452612 0.022183819 0.008216122 0.018795311 0.058214806 0.004294019 0.0206302 -0.023851816
0.010938859 -0.006019619 0.06518133 -0.007847136 0.031591855 -0.015196546 -0.00417925 0.04271621
-0.0054605217 0.015395911 0.014117808 -0.018548688 -0.04386612 0.004015402 -0.016768577 -0.025457917
-0.024146821 -0.02435547 -0.027804995 0.0070348606 0.043935526 -0.004727552 0.024511898 -0.009915004
-0.04832093 -0.03605691 0.010496592 -0.003808089 0.042101778 -0.025264945 -0.0008273974 -0.02260172
0.006575653 0.036860794 0.021836245 -0.009671637 0.037435792 0.025688719 0.016057959 -0.04533806
0.0049382374 0.022874558 -0.041423026 0.011418287 -0.038834296 -0.021162093 0.014543666 0.009066212
-0.03355884 0.0024679685 0.042346343 0.031152455 -0.027240163 -0.04879749 -0.011662444 -0.025223458
-0.011850733 -0.010103289 0.035494786 0.035314508 -0.03809696 -0.028068762 -0.021956595 0.014678447
0.009134632 0.009215402 0.04210339 0.019926473 0.03600191 -0.009621335 0.024670625 -0.02969266
-0.037036087 0.020404529 0.014376065 -0.05214279 0.058821116 -0.007822951 0.055987112 -0.020592924
-0.031900402 0.03674271 0.035665106 -0.011502364 -0.054632835 -0.021567514 -0.01781091 0.0027608615
0.010073045 0.028854858 -0.015674677 0.014782182 0.03801529 0.034285296 -0.07419985 -0.0437607
0.011950211 -0.030042626 -0.01918685 -0.046936654 -0.0056000277 0.045965314 0.0036894132 -0.04315607
-0.037433214 -0.051753648 0.015468721 0.004101516 -0.022093466 0.04000438 -0.015713308 -0.003829385
-0.07475001 -0.036426857 0.025302488 0.030007867 0.010114976 0.045388017 5.8151752e-05 0.019114673
-0.01742057 0.02348309 0.03974671 0.015934495 0.00689667 -0.04967877 -0.0070409947 -0.030315313
0.0042984923 0.03331133 -0.020587154 -0.0037971216 0.022056708 0.031485546 0.03156837 0.017006468
-0.016676012 0.010136432 0.0038618061 -0.047459885 0.036277395 0.025461499 0.039165642 -0.025484208
-0.031755205 0.010481562 0.007291489 -0.027774805 0.005586249 0.014362487 0.0057487446 -0.016689463
0.020812992 0.027021604 0.030525748 0.05425928 0.059896477 -0.047432367 3.5751524e-05 -0.0018165113
-0.050972044 -0.0072266385 0.05942467 -0.03712083 -0.020752782 -0.057854626 0.00836748 -0.051422127
-0.038261686 -0.016028026 0.013550745 -0.006884047 -0.049853455 -0.054763276 0.048917506 0.027591467
0.015951533 -0.06435818 0.024831738 -0.014950375 -0.023294449 -0.006853892 -0.045012042 0.026623007
-0.04017217 -0.02074036 0.028142676 -0.007555071 0.0034200498 -0.042489838 0.053219795 -0.0006553454
0.005752314 0.008720612 0.02388365 -0.0052679507 -0.025366722 0.03735988 0.03319696 -0.02088051
0.030314032 -0.0040392205 -0.051102806 -0.014447546 0.0075922073 -0.00043059303 0.04742334 -0.0290077
0.0058091255 0.020957375 0.032950424 -0.05860769 -0.04484962 0.033683572 0.025276285 -0.016616581
00000000: 2671 fabc 0596 d13c e8e4 3f3b 129c 75bb
00000010: 8fff 483d 272b 89bc 2043 28bd 4eab e23b
00000020: 2386 ba3c ba64 32ba 452e d4bb 0ca0 25bd
00000030: ffe6 813b 12f9 ef3b 5496 753d bc6b bb3a
00000040: c0a8 4dbd 4f38 6cbd aee4 a0ba 3018 243d
00000050: 864f fcbc 3287 1dbd 700f 703d 632d d13b
00000060: 17ef afbc 0a8f 2abd ef30 ea3c 8603 3a3d
00000070: 6e33 afbb 5ca4 383d b670 41bc efa7 80ba
00000080: e967 193d d7ba b53c ea9c 063c a0f8 993c
00000090: a672 6e3d d8b4 8c3b aa00 a93c e264 c3bc
000000a0: e638 333c 3940 c5bb ca7d 853d 4691 00bc
000000b0: 7666 013d effa 78bc 17f2 88bb 31f7 2e3d
000000c0: 2dee b2bb 223f 7c3c 614e 673c 6bf3 97bc
000000d0: f6ac 33bd a293 833b 415e 89bc 1f8d d0bc
000000e0: 8ecf c5bc 1f85 c7bc 4dc7 e3bc b084 e63b
000000f0: bdf5 333d 95e9 9abb 2dcd c83c 8a72 22bc
00000100: 2bec 45bd 69b0 13bd e6f9 2b3c 2291 79bb
00000110: ea72 2c3d 6ef8 cebc b3e5 58ba 3e27 b9bc
00000120: 9378 d73b 58fb 163d ede1 b23c c975 1ebc
00000130: 4656 193d 2671 d23c fb8b 833c 67b4 39bd
00000140: f0d0 a13b 6d63 bb3c 31ab 29bd c413 3b3c
00000150: b610 1fbd 205c adbc 8e48 6e3c 738a 143c
00000160: ff74 09bd a4bd 213b 5c73 2d3d 6f33 ff3c
00000170: c326 dfbc e0df 47bd d613 3fbc 6da1 cebc
00000180: 9429 42bc 4488 25bc fb62 113d f2a5 103d
00000190: 8f0b 1cbd 76f0 e5bc 51de b3bc de7d 703c
000001a0: 6ca9 153c 33fc 163c 9b74 2c3d d83c a33c
000001b0: bd76 133d cea2 1dbc 0d1a ca3c 053e f3bc
000001c0: 27b3 17bd 6627 a73c 9689 6b3c ae93 55bd
000001d0: 69ee 703d d62b 00bc be52 653d 7eb2 a8bc
000001e0: ffa9 02bd 867f 163d 9315 123d 6974 3cbc
000001f0: aec6 5fbd 5bae b0bc 2fe8 91bc 92ef 343b
00000200: 6a09 253c 0661 ec3c 2e68 80bc f730 723c
00000210: ecb5 1b3d bd6e 0c3d 17f6 97bd 6b3e 33bd
00000220: d1ca 433c f41b f6bc be2d 9dbc a640 40bd
00000230: 7080 b7bb 2046 3c3d 15ca 713b 6bc4 30bd
00000240: 9253 19bd a2fb 53bd 8570 7d3c 0366 863b
00000250: 5bfd b4bc a2db 233d 32b9 80bc 6bf6 7abb
00000260: 8916 99bd 5434 15bd 2a47 cf3c 0fd3 f53c
00000270: 49b9 253c c9e8 393d f8e7 7338 6096 9c3c
00000280: 95b5 8ebc 9c5f c03c 72cd 223d 0f89 823c
00000290: 76fd e13b f77b 4bbd 25b8 e6bb d257 f8bc
000002a0: 5eda 8c3b 7671 083d 64a6 a8bc 21d9 78bb
000002b0: 45b0 b43c fdf6 003d d64d 013d 2651 8b3c
000002c0: 229c 88bc 4713 263c 5b16 7d3b 4c65 42bd
000002d0: 9b97 143d a294 d03c 276c 203d 42c4 d0bc
000002e0: bf11 02bd dcba 2b3c 71ed ee3b fd87 e3bc
000002f0: da0c b73b a350 6b3c f75f bc3b 57b8 88bc
00000300: 0280 aa3c 695c dd3c 2211 fa3c fb3e 5e3d
00000310: 0256 753d 7148 42bd e8f3 1538 0118 eeba
00000320: 10c8 50bd 70cd ecbb 4867 733d 030c 18bd
00000330: bd01 aabc f9f8 6cbd c117 093c 02a0 52bd
00000340: 49b8 1cbd 354d 83bc f203 5e3c 9293 e1bb
00000350: 2333 4cbd 754f 60bd b95d 483d 8007 e23c
00000360: caac 823c 39ce 83bd ee6b cb3c 6bf2 74bc
00000370: 00d4 bebc 9d96 e0bb 8c5e 38bd 7e18 da3c
00000380: 938b 24bd b0e7 a9bc 788b e63c 8790 f7bb
00000390: ea22 603b d309 2ebd 00fd 593d 7ccb 2bba
000003a0: e87d bc3b e6e0 0e3c a5a7 c33c c69e acbb
000003b0: dfcd cfbc ac06 193d 89f9 073d 9a0d abbc
000003c0: 2255 f83c 705b 84bb 2d51 51bd 66b5 6cbc
000003d0: 0dc8 f83b 38c1 e1b9 fa3e 423d 8ea1 edbc
000003e0: 7a5a be3b cdae ab3c 06f7 063d 9e0e 70bd
000003f0: 3cb4 37bd c9f7 093d 3610 cf3c 7f1f 88bc

model.0.bias f4 [256]
0.016972823 -0.0090507725 0.052645806 0.009750083 -0.02127152 5.0753155e-05 0.04091054 0.029773027
-0.0014725173 -0.012613423 0.032928437 -0.02287435 0.04631626 -0.003003634 0.01628831 -0.021014987
0.0075622373 -0.034252387 -0.025712281 -0.006222319 -0.010392655 0.021628642 -0.020148195 -0.015406911
0.035358667 -0.011711457 -0.020854548 0.009190042 -0.003930359 0.009122043 -0.022770753 0.038467962
-0.014759862 0.04753844 0.025299545 -0.035005946 -0.028229913 0.033696257 0.017181778 -0.0032584409
-0.032354537 -0.0002441508 0.028027108 -0.012159138 -0.022236446 -0.04100578 0.043058645 0.0166418
0.029870942 -0.006327348 0.041326866 0.045442786 0.03925347 -0.0023581707 0.032003958 -0.034181718
-0.004048698 -0.020342147 -0.0119210025 -0.017843788 -0.026758168 -0.006344182 0.020242719 -0.005478875
-0.018019598 0.024779351 0.0068886536 0.010220652 0.021341622 0.009295656 -0.016307926 -0.007448319
-0.031191844 0.04637577 0.022704905 0.017090201 0.011774219 -0.034994334 -0.028740887 0.029792562
0.016821636 -0.02118697 -0.04677866 -0.0059921267 0.020816151 -0.016099531 0.06342269 0.049269363
-0.0036861012 -0.01234797 -0.03625467 0.03970245 0.032740958 -0.01261551 0.02344005 0.024040451
0.05104624 0.046051398 0.040540222 -0.009587042 -0.015399808 -0.0061810403 0.04384543 -0.031260107
0.013369474 -0.025860127 0.055834573 0.036673356 0.02321097 -0.024521459 -0.03249041 -0.019754699
0.032367628 -0.01577999 0.04931035 -0.034521557 0.025908291 0.033744708 -0.0040895846 0.013887905
-0.0125255445 0.014263734 0.032914344 0.015410249 0.048500657 -0.029487723 -0.03993407 -0.01642243
-0.04112143 0.021870442 0.037594732 0.022019336 0.036968738 0.019196214 0.04844792 0.04271571
0.047461335 -0.011280878 0.007592526 -0.02346431 0.02602354 0.019404657 0.016038654 0.002436431
0.02293888 -0.009135859 0.047940247 0.02889448 -0.01960619 0.029193716 0.03231392 0.049708366
0.004876007 0.025335796 0.04631403 -0.024804741 -0.0015137014 -0.024680076 0.024668446 -0.019902276
-0.0054293596 0.010231917 -0.040834706 -0.007481496 -0.020823749 -0.022756893 0.029989783 0.009200711
0.032477133 0.02595405 0.016249187 -0.036057193 0.0062531442 0.034307335 -0.030257469 -0.03425391
0.03676634 -0.0044468725 0.036244415 -0.00019031228 -0.028158842 0.019300893 -0.011180693 -0.027534837
0.026654579 -0.014894903 -0.00043599028 0.044489652 0.013270731 0.0013049905 0.058326475 -0.0046201977
-0.02447572 -0.0034513592 0.032926552 0.039127342 0.028423477 0.022907125 0.013222395 0.0008365412
-0.03105782 0.0023918552 -0.0038763327 0.041595947 0.0013040245 0.028865049 0.01832706 0.027175838
-0.046648372 0.044029992 0.03291054 -0.030509535 0.015198075 0.04280551 -0.029465012 -0.00047144064
-0.013901198 -0.04236076 0.01943152 -0.045391455 -0.021726398 -0.03044261 0.025129685 -0.013115499
-0.037488423 0.008199993 -0.022900732 0.040856984 0.0016034996 -0.004270304 -0.029040098 0.005657029
0.0062462036 0.006717866 0.010643708 0.048092946 -0.043142527 0.017940415 -0.025880462 0.042348165
-0.02006484 0.008629145 -0.024149705 -0.026573403 -0.006073141 -0.031198088 -0.01207336 0.03396128
-0.008111659 -0.029427715 -0.03168562 0.03306481 -0.014659022 0.01557142 0.033523086 -0.024754124
00000000: 970a 8b3c b149 14bc 21a3 573d d0be 1f3c
00000010: 9c41 aebc c9df 5438 cf91 273d 90e6 f33c
00000020: 7b01 c1ba 88a8 4ebc f8df 063d fd62 bbbc
00000030: 1eb6 3d3d 9ed8 44bb 106f 853c 9f27 acbc
00000040: a5cc f73b 3b4c 0cbd 90a2 d2bc 98e4 cbbb
00000050: f445 2abc 8d2e b13c d40d a5bc 456d 7cbc
00000060: 40d4 103d 69e1 3fbc 28d7 aabc d491 163c
00000070: 3eca 80bb 9f74 153c bb89 babc 9590 1d3d
00000080: 59d3 71bc abb7 423d fe40 cf3c 6562 0fbd
00000090: 6b42 e7bc 1605 0a3d cdc0 8c3c 918b 55bb
000000a0: 3186 04bd 5e01 80b9 1b99 e53c 1f37 47bc
000000b0: 3529 b6bc adf5 27bd 435e 303d 6254 883c
000000c0: e8b3 f43c a455 cfbb 5c46 293d 3722 3a3d
000000d0: 3fc8 203d 8a8b 1abb 9516 033d 2102 0cbd
000000e0: f1aa 84bb 93a4 a6bc 4f50 43bc 232d 92bc
000000f0: f233 dbbc dbe2 cfbb 0fd4 a53c 2288 b3bb
00000100: d69d 93bc 11fe ca3c 37ba e13b 8674 273c
00000110: a0d4 ae3c cf4c 183c 3398 85bc 0711 f4bb
00000120: 0a86 ffbc 85f4 3d3d a3ff b93c c000 8c3c
00000130: a7e8 403c 3856 0fbd 0272 ebbc 880f f43c
00000140: 87cd 893c 4c90 adbc fb9a 3fbd 9a59 c4bb
00000150: a286 aa3c 2ae3 83bc c1e3 813d acce 493d
00000160: 8492 71bb 244f 4abc c77f 14bd 099f 223d
00000170: 621b 063d 49b1 4ebc 5905 c03c 7bf0 c43c
00000180: dd15 513d 64a0 3c3d 810d 263d f812 1dbc
00000190: 7a4f 7cbc 538a cabb 4497 333d 990a 00bd
000001a0: a30b 5b3c 9ed8 d3bc cbb2 643d cd36 163d
000001b0: ef24 be3c 3ae1 c8bc aa14 05bd 9bd4 a1bc
000001c0: eb93 043d 0a45 81bc a6f9 493d 7a66 0dbd
000001d0: a03d d43c e437 0a3d ec01 86bb 188a 633c
000001e0: f137 4dbc 70b2 693c 31d1 063d 457b 7c3c
000001f0: a0a8 463d 3d90 f1bc e891 23bd 5588 86bc
00000200: f26e 28bd a429 b33c effc 193d e561 b43c
00000210: 886c 173d 6141 9d3c 5371 463d abf6 2e3d
00000220: d166 423d 6fd3 38bc b9ca f83b 3a38 c0bc
00000230: 522f d53c 84f6 9e3c 7f63 833c 87ac 1f3b
00000240: 51ea bb3c 92ae 15bc fe5c 443d 1eb4 ec3c
00000250: 299d a0bc a927 ef3c 9a5b 043d 009b 4b3d
00000260: e9c6 9f3b 048d cf3c c8b3 3d3d 5033 cbbc
00000270: 6467 c6ba df2d cabc 7b15 ca3c 190a a3bc
00000280: c5e8 b1bb c5a3 273c 4b42 27bd 5627 f5bb
00000290: 9196 aabc aa6c babc 22ad f53c 94be 163c
000002a0: be06 053d 969d d43c 041d 853c b5b0 13bd
000002b0: 2de7 cc3b d985 0c3d 83de f7bc d44d 0cbd
000002c0: 4d98 163d 12b7 91bb 0675 143d 908e 47b9
000002d0: 5fad e6bc e81c 9e3c 3a2f 37bc bd90 e1bc
000002e0: b45a da3c c009 74bc a095 e4b9 c83a 363d
000002f0: 7b6d 593c 370c ab3a bee7 6e3d 0765 97bb
00000300: 4e81 c8bc 3330 62bb fedd 063d fe43 203d
00000310: 5ad8 e83c b9a7 bb3c bfa2 583c 544b 5b3a
00000320: f86c febc acc0 1c3b 120a 7ebb 8360 2a3d
00000330: cdeb aa3a 6576 ec3c a122 963c dd9f de3c
00000340: 5d12 3fbd cb58 343d 34cd 063d 22ef f9bc
00000350: 5901 793c d554 2f3d 9c60 f1bc b12b f7b9
00000360: dac1 63bc 7a82 2dbd da2e 9f3c 64ec 39bd
00000370: 8ffb b1bc c862 f9bc c5dc cd3c 64e2 56bc
00000380: 768d 19bd 4359 063c 519a bbbc a759 273d
00000390: 852c d23a e8ed 8bbb 80e5 edbc 995e b93b
000003a0: f4ac cc3b 8b21 dc3b f262 2e3c 1cfd 443d
000003b0: 38b6 30bd c7f7 923c 4303 d4bc 4575 2d3d
000003c0: 055f a4bc 4261 0d3c 9ad5 c5bc 77b0 d9bc
000003d0: 3301 c7bb 2293 ffbc 58cf 45bc fc1a 0b3d
000003e0: c4e6 04bc 6412 f1bc c8c8 01bd f76e 073d
000003f0: 652c 70bc 451f 7f3c 814f 093d 29c9 cabc

model.3.weight f4 [64, 256]
0.013021809 0.06687249 -0.0011576494 0.042108808 -0.006064573 0.017546713 0.090477124 -0.031292457
0.0091527505 0.054870334 0.07622901 0.015440957 -5.8770114e-05 0.065531254 0.098547176 0.00013321877
-0.0150587475 0.064354114 0.024247583 -0.02291436 0.0004762011 0.03484512 0.009911158 0.01448786
0.069828406 0.0028921778 0.062365912 -0.031193236 -0.012227408 0.00056243787 0.0102223335 0.06526945
-0.04243618 0.09389243 -0.050971996 0.02505615 0.047179405 -0.03806474 0.022748517 -0.025417525
-0.016431045 0.0078996355 0.010945024 0.008884309 -0.08732618 0.0152657535 0.017323878 -0.065856546
0.040738676 -0.083344504 0.045102008 -0.04362268 -0.003350196 -0.025940793 -0.044582393 0.06438002
-0.027324818 0.04791462 0.07540013 -0.07389637 0.059575066 -0.028685912 0.033280414 -0.0338639
0.0364674 0.011356029 -0.033317298 0.08007688 -0.02732968 -0.03314938 -0.009738681 -0.005970639
-0.017983688 0.059830084 0.047595497 0.090249054 -0.028646965 -0.07497829 -0.029541833 -0.034464233
-0.026047086 0.019714974 -0.040612385 -0.05367002 -0.031527624 -0.01081673 0.0123424325 0.06730037
-0.0374396 0.0334072 0.05834498 0.0009922358 0.06963092 -0.030318312 -0.043078575 -0.029749736
-0.008718119 -0.032332152 0.006575235 0.005440018 -0.044635985 0.03463175 0.01325599 -0.024911098
0.04113353 -0.02529248 0.014555932 0.0512637 -0.057430364 0.10235415 0.046721566 -0.06354643
0.045039188 -0.057855844 -0.0016600513 0.0041870493 -0.016571645 -0.03373136 -0.03290755 0.06499008
-0.017626105 -0.015288365 0.08364102 0.028034426 -0.044211075 0.069559634 -0.049370844 0.011544739
-0.0032716794 -0.038145673 0.04373626 0.07343226 0.0048202346 0.048425402 0.037217773 -0.012159972
-0.030148504 0.029046323 -0.021030368 0.051917583 0.0037942417 -0.06458985 -0.008195915 0.08133862
-0.016919963 -0.004404383 0.051304583 -0.023469063 0.0135847535 0.03446257 0.076237366 0.019264784
0.025096975 -0.02256127 -0.012190083 0.053480435 -0.0022019837 -0.036166005 0.025150074 -0.0046056514
0.074600495 0.035315678 0.037812658 0.04633426 0.044098075 0.0032687446 -0.07542073 -0.007376718
-0.024254804 0.07722007 -0.049075056 -0.045701653 0.008099959 -0.04561905 -0.0012080766 -0.017085483
0.0053271344 -0.057618737 -0.0031178284 0.01496305 -0.084738374 0.0019919653 0.018504648 -0.019796519
-0.052822396 0.042004574 0.0055735926 0.023551587 0.08575121 0.027498243 0.020415707 0.022877421
-0.0055227536 0.0393977 -0.023613965 0.070399486 -0.10576707 0.010424075 0.018158669 0.07296642
0.040509924 0.05554382 0.005051049 0.015574006 -0.03983832 -0.02644457 0.04472505 -0.071746536
0.0064393645 0.028956546 -0.03753291 -0.037799824 0.013951928 -0.023778914 0.009181551 -0.00626529
-0.013676765 0.05321865 0.00870293 0.023071878 0.014300052 0.094566636 -0.038154263 -0.023395486
0.060338058 -0.010504988 -0.0023828666 0.030942664 0.0370704 0.074460216 -0.049828406 -0.06851089
0.01265124 -0.012505252 0.05184106 0.02871308 -0.005744968 0.011616794 0.08110474 -0.005974347
-0.06179178 -0.0068056826 0.024891429 0.048935764 0.06595784 0.07954804 0.08779132 -0.005140589
0.015956206 0.0035096148 0.051520266 0.03979986 0.004098864 0.02443804 -0.032004762 0.038584735
00000000: 6d59 553c 72f4 883d 45bc 97ba 497a 2c3d
00000010: 53b9 c6bb 20be 8f3c 124c b93d 852c 00bd
00000020: 6bf5 153c b7bf 603d f51d 9c3d 11fc 7c3c
00000030: ee7f 76b8 4035 863d 1ad3 c93d a4b0 0b39
00000040: f7b8 76bc 17cc 833d dea2 c63c e5b6 bbbc
00000050: a1aa f939 c2b9 0e3d 6962 223c 7d5e 6d3c
00000060: 3202 8f3d b18a 3d3b 6673 7f3d f588 ffbc
00000070: 7755 48bc 9170 133a 937b 273c fdab 853d
00000080: 8fd1 2dbd ad4a c03d 03c8 50bd 8e42 cd3c
00000090: 313f 413d c6e9 1bbd 195b ba3c 6a38 d0bc
000000a0: 669a 86bc 796d 013c c252 333c 7e8f 113c
000000b0: 11d8 b2bd 361d 7a3c ceea 8d3c ccdf 86bd
000000c0: 99dd 263d 86b0 aabd e2bc 383d b2ad 32bd
000000d0: f68e 5bbb c981 d4bc 079c 36bd acd9 833d
000000e0: 4cd8 dfbc 1f42 443d 626b 9a3d fb56 97bd
000000f0: fc04 743d b8fe eabc 0b51 083d dfb4 0abd
00000100: d75e 153d a30e 3a3c b877 08bd 59ff a33d
00000110: 7ee2 dfbc a5c7 07bd fd8e 1fbc 5aa5 c3bb
00000120: 8752 93bc 6410 753d 7ff3 423d 7fd4 b83d
00000130: 0aad eabc 388e 99bd b701 f2bc 5e2a 0dbd
00000140: b360 d5bc 4c81 a13c 2c59 26bd 18d5 5bbd
00000150: 1c23 01bd a738 31bc ea37 4a3c c7d4 893d
00000160: 445a 19bd fdd5 083d 25fb 6e3d e90d 823a
00000170: a89a 8e3d 1c5e f8bc 2973 30bd b8b5 f3bc
00000180: 71d6 0ebc b86e 04bd 1275 d73b 2e42 b23b
00000190: 39d4 36bd 06da 0d3d a72f 593c 5c12 ccbc
000001a0: a27b 283d 2d32 cfbc 017c 6e3c e3f9 513d
000001b0: 1a3c 6bbd 0d9f d13d 1d5f 3f3d a124 82bd
000001c0: 037b 383d 40fa 6cbd 1496 d9ba 8433 893b
000001d0: 42c1 87bc e529 0abd 11ca 06bd 8519 853d
000001e0: 9f64 90bc 0d7c 7abc fc4b ab3d 74a8 e53c
000001f0: ac16 35bd 4875 8e3d 1539 4abd 2526 3d3c
00000200: ac69 56bb a33e 1cbd cb24 333d a763 963d
00000210: 0ff3 9d3b b759 463d aa71 183d 9f3a 47bc
00000220: fff9 f6bc 8ef2 ed3c e147 acbc 88a7 543d
00000230: d0a8 783b af47 84bd 2948 06bc dd94 a63d
00000240: bc9b 8abc a452 90bb c124 523d 3142 c0bc
00000250: 9692 5e3c a028 0d3d 5622 9c3d 2ed1 9d3c
00000260: 2c98 cd3c 6ad2 b8bc eab8 47bc 4d0e 5b3d
00000270: 284f 10bb ce22 14bd 8707 ce3c 01eb 96bb
00000280: 25c8 983d 2ca7 103d 72e1 1a3d fec8 3d3d
00000290: 2fa0 343d 6f38 563b 2f76 9abd 65b8 f1bb
000002a0: 03b2 c6bc 8e25 9e3d ed02 49bd a831 3bbd
000002b0: b1b5 043c 0adb 3abd 5358 9eba dbf6 8bbc
000002c0: 3e8f ae3b a001 6cbd 7b54 4cbb 9527 753c
000002d0: 508b adbd a28b 023b 0f97 973c 4f2c a2bc
000002e0: 4c5c 58bd fd0c 2c3d afa2 b63b 42ef c03c
000002f0: 559e af3d ff43 e13c d73e a73c 6e69 bb3c
00000300: 37f8 b4bb 7c5f 213d 1372 c1bc 9b2d 903d
00000310: 689c d8bd bdc9 2a3c 7dc1 943c 6b6f 953d
00000320: bced 253d eb81 633d 4583 a53b 1e2a 7f3c
00000330: 822d 23bd 48a2 d8bc 9d31 373d d9ef 92bd
00000340: 4e01 d33b 4736 ed3c 1cbc 19bd fdd3 1abd
00000350: a196 643c ffcb c2bc 376e 163c 104d cdbb
00000360: 8314 60bc cdfb 593d bc96 0e3c 3c01 bd3c
00000370: c44a 6a3c 27ac c13d a547 1cbd e4a7 bfbc
00000380: 0a25 773d 1d1d 2cbc de29 1cbb 787b fd3c
00000390: 22d7 173d 997e 983d df18 4cbd 704f 8cbd
000003a0: 2647 4f3c d4e2 4cbc 4b57 543d b137 eb3c
000003b0: 4940 bcbb 5e54 3e3c 3e1a a63d 74c4 c3bb
000003c0: 6119 7dbd 3402 dfbb 1ce9 cb3c de70 483d
000003d0: e714 873d 15ea a23d f0cb b33d 6372 a8bb
000003e0: 97b6 823c 9101 663b ea06 533d 2e05 233d
000003f0: c34f 863b 4932 c83c 6d17 03bd 070b 1e3d

model.3.bias f4 [64]
0.017415687 -0.013378029 0.0042834603 0.02718687 0.026733402 0.030615594 -0.0021689716 -0.05100916
0.0052756188 0.067382306 -0.00020350423 -0.033665992 0.037972193 0.07230895 0.0447559 0.008945244
-0.01509426 0.040921766 -0.03357187 -0.014731599 -0.026313603 0.02858635 -0.054859687 0.040284168
-0.010085218 -0.048350442 0.060588297 0.01802839 -0.030807516 0.05604708 -0.038112655 -0.05835894
-0.038679566 0.03195361 0.03280997 0.023278998 -0.013152256 0.017747613 0.034027606 0.0411754
-0.058833692 0.048293576 0.029216986 -0.039462347 -0.001477066 0.03985775 -0.020923963 0.01287627
-0.050250124 -0.023910422 -0.009840602 -0.03398665 -0.033300653 0.059368562 0.04492812 0.035287794
-0.0074107936 0.0036662472 -0.019976858 -0.01831114 -0.05901872 0.06979506 -0.030888086 -0.04654146
00000000: 58ab 8e3c 852f 5bbc 455c 8c3b 00b7 de3c
00000010: 0200 db3c 8ecd fa3c 4e25 0ebb fbee 50bd
00000020: 19df ac3b bcff 893d c063 55b9 5ae5 09bd
00000030: bb88 1b3d b716 943d f651 373d 138f 123c
00000040: ea4d 77bc 959d 273d a882 09bd ce5c 71bc
00000050: a08f d7bc ec2d ea3c 8db4 60bd 0301 253d
00000060: 783c 25bc 1d0b 46bd 6f2b 783d 46b0 933c
00000070: 0b60 fcbc 9f91 653d 041c 1cbd c909 6fbd
00000080: 776e 1ebd cae1 023d bf63 063d 99b3 be3c
00000090: 8f7c 57bc 7163 913c 8860 0b3d 89a7 283d
000000a0: 99fb 70bd 7ccf 453d 7658 ef3c 45a3 21bd
000000b0: 1c9a c1ba e141 233d bb68 abbc fef6 523c
000000c0: 13d3 4dbd cadf c3bc 7a3a 21bc 9635 0bbd
000000d0: 4466 08bd 732c 733d 8c06 383d ef89 103d
000000e0: 3ed6 f2bb 6c45 703b 82a6 a3bc 3e01 96bc
000000f0: 9dbd 71bd b6f0 8e3d 0309 fdbc 42a2 3ebd

model.5.weight f4 [1, 64]
-0.12671626 0.08595221 0.054450393 0.060967844 0.06875586 -0.06199624 -0.046121217 0.048652284
-0.12615809 -0.08590148 0.14840999 -0.15415783 -0.07415093 -0.05919044 0.12600137 0.1522274
0.077788934 -0.0660038 0.07035583 -0.14920814 -0.15312876 0.1403197 0.08514581 -0.048700362
-0.087810166 0.05161274 0.07193741 0.034737613 0.14419897 0.16046183 0.08984143 0.12987974
-0.09360887 0.09461851 -0.08747047 -0.10197374 -0.022625161 0.164503 -0.117190346 0.05238701
0.13576399 0.0895258 -0.1063306 -0.11959617 -0.07383388 0.15972678 0.070582554 0.05400032
-0.11757962 -0.04585293 -0.09756392 0.0572591 0.048321813 -0.103370965 0.044684507 0.049305234
-0.14756578 0.13329317 0.11982803 0.08384311 0.095450476 -0.06306805 0.089931674 0.0643019
00000000: e8c1 01be b607 b03d 6007 5f3d 6bb9 793d
00000010: dfcf 8c3d c5ef 7dbd 9ae9 3cbd 9e47 473d
00000020: 962f 01be 1ded afbd caf8 173e 8ddb 1dbe
00000030: 71dc 97bd ad71 72bd 8106 013e 80e1 1b3e
00000040: ce4f 9f3d 002d 87bd b816 903d 05ca 18be
00000050: c9cd 1cbe f8af 0f3e ed60 ae3d 087a 47bd
00000060: d1d5 b3bd e167 533d ec53 933d 0749 0e3d
00000070: e5a8 133e 1b50 243e c9fe b73d 32ff 043e
00000080: 02b6 bfbd 59c7 c13d b823 b3bd 9cd7 d0bd
00000090: 6758 b9bc 7973 283e 7e01 f0bd c393 563d
000000a0: b705 0b3e 4d59 b73d dcc3 d9bd d6ee f4bd
000000b0: 3836 97bd 6b8f 233e 968d 903d 712f 5d3d
000000c0: 95cd f0bd 48d0 3bbd 98cf c7bd 8588 6a3d
000000d0: 18ed 453d 28b4 d3bd 1a07 373d 49f4 493d
000000e0: 7c1b 17be 017e 083e 6668 f53d f0b5 ab3d
000000f0: 8a7b c33d d229 81bd 192e b83d b7b0 833d
